backend/dqn_connect4_model.pth (torch, 94390 bytes, 6 tensors)

fc1.weight f4 [128, 42]
0.51131624 -0.19784968 -0.1826683 -0.052188423 -0.054011308 -0.24341209 0.1384024 0.013864272
-0.03266034 0.16261777 0.09764466 0.05787779 0.10756662 -0.23846309 -0.14756927 0.04847945
0.13472356 0.058525786 -0.009784167 -0.04166019 -0.21285433 -0.07990887 -0.23880911 0.10447368
-0.049410865 0.042376895 0.07573006 -0.31830597 -0.10754826 -0.24947426 -0.14553945 -0.270427
0.16733024 -0.034764253 0.04823614 0.20456068 0.041586168 0.004910768 0.13983454 0.19470127
0.2636566 0.1917409 0.2988421 0.17918555 0.27141207 -0.34858516 0.07803014 0.10134856
0.0078100543 0.02138683 -0.5514683 -0.04847152 0.1780169 -0.20207404 0.1423987 0.42922106
-0.44636217 0.68339384 -0.023389507 0.053850304 -0.35697144 -0.38593656 -0.04749209 -0.19193412
-0.042701356 -0.05251622 0.20504497 -0.29414752 -0.19784814 -0.067797005 0.016334815 0.03063069
0.17535503 0.1393876 -0.024693036 0.17235225 0.15727766 -0.25925022 0.0018647116 0.07301763
0.00043936542 -0.14282356 0.023836436 0.007390643 0.5397859 -0.070516266 0.21474743 -0.113876686
0.18702354 0.56543744 -0.087569274 -0.038394943 -0.18285017 0.0928925 -0.24058351 0.19522429
-0.00868978 -0.26390296 0.20170602 0.17386039 -0.16053854 0.06684563 0.016917346 0.013522662
0.1287247 -0.34721282 -0.08365678 0.020051915 -0.21102853 -0.113029934 0.10738084 0.24542747
0.12806289 -0.17857267 -0.10408516 -0.20081973 -0.1207191 0.06276328 -0.054912776 -0.0043806
-0.094879255 -0.22317176 -0.007735544 -0.13423929 -0.2933787 0.0649938 -0.1817349 0.024455594
0.10769897 0.17061603 0.18523191 0.20807801 0.096179485 0.04463516 0.88803303 -0.19875365
0.09749204 -0.3623461 0.10974647 0.2653542 0.14185853 -1.9637341 0.14393687 0.061421487
-0.03961164 0.17809547 -0.10348904 -0.23402946 0.5728586 0.11347272 -0.10604827 0.2214618
0.21748681 -0.09111652 -0.044933192 -0.3303857 -0.14542143 0.28161678 0.19875936 -0.38270995
0.47414353 -0.36488542 0.77185744 -0.41829246 -0.12881804 0.55037606 -0.2003734 -0.2838408
-0.22075629 0.77222794 0.28417072 -0.078730665 0.047530226 -0.15977634 -0.2356086 0.0043044547
1.179726 0.3087039 0.02831621 -0.5858363 0.049041018 0.58030486 0.27515173 -1.1942406
-0.0059765447 0.2189934 0.4713169 -0.10257199 -0.21902293 0.037560273 -0.27110174 -0.02930985
-0.025359986 -0.026776422 0.34372428 0.08085038 -0.47735366 -0.18219319 0.05331915 0.3059535
-0.14378452 -0.36068395 0.5331454 -0.4781725 0.6309301 -0.24239051 -0.38726273 0.32519335
-0.34217826 -0.01128161 0.0008827968 0.72908795 -0.11351762 -0.15919226 0.13919002 0.15487048
0.3859505 0.0616577 0.71052563 0.033137713 -0.26719412 0.29540265 0.07430515 -0.091425784
-0.08683252 -1.4605775 0.1246489 0.0971386 -0.22369267 -0.19278459 -0.06307603 -0.08140972
0.48150247 -0.12727109 0.05356195 0.14826387 0.008280898 -0.0022490486 -0.14895198 -0.49551842
-0.061463226 0.042028602 -0.0020117627 -0.104879 0.22881807 -0.36329657 0.24281117 0.066113345
-0.048521396 0.31702563 0.016926827 -0.22711276 0.059513304 -0.11075368 0.49958077 -0.17170088
00000000: 9fe5 023f 1b99 4abe 660d 3bbe 87c3 55bd
00000010: f63a 5dbd 0541 79be 5cb9 0d3e f926 633c
00000020: d9c6 05bd 4685 263e ecf9 c73d 4311 6d3d
00000030: e34b dc3d ab2f 74be 661c 17be 6392 463d
00000040: f9f4 093e bcb8 6f3d c54d 20bc e0a3 2abd
00000050: 7cf6 59be 43a7 a3bd 608a 74be 4cf6 d53d
00000060: 0c63 4abd 6593 2d3d 5d18 9b3d 00f9 a2be
00000070: 4342 dcbd 2e76 7fbe 4b08 15be 6875 8abe
00000080: 9e58 2b3e f664 0ebd 4293 453d 5b78 513e
00000090: 4256 2a3d 82ea a03b c930 0f3e c55f 473e
000000a0: fffd 863e ba57 443e d501 993e 6b7c 373e
000000b0: 86f6 8a3e c179 b2be 44ce 9f3d d58f cf3d
000000c0: 7ceb ff3b 6f33 af3c 072d 0dbf 138a 46bd
000000d0: 104a 363e 7fec 4ebe f7d0 113e ddc2 db3e
000000e0: 9589 e4be e6f2 2e3f 5a9b bfbc 2392 5c3d
000000f0: f6c4 b6be 7a99 c5be 1187 42bd 618a 44be
00000100: 9ee7 2ebd 3f1b 57bd 4ff7 513e 819a 96be
00000110: b498 4abe 28d9 8abd 97d0 853c 36ed fa3c
00000120: 4590 333e 9fbb 0e3e 0d49 cabc 1c7d 303e
00000130: 650d 213e 72bc 84be 5769 f43a 448a 953d
00000140: a15a e639 5740 12be a144 c33c 352d f23b
00000150: 692f 0a3f d56a 90bd c0e6 5b3e 2e38 e9bd
00000160: 1983 3f3e 82c0 103f 8557 b3bd 0444 1dbd
00000170: 133d 3bbe 6c3e be3d 865b 76be e0e8 473e
00000180: 945f 0ebc 4a1e 87be 068c 4e3e 7508 323e
00000190: 3764 24be 5de6 883d 3f96 8a3c 288e 5d3c
000001a0: 68d0 033e e1c5 b1be 3f54 abbd ea43 a43c
000001b0: dd17 58be 3d7c e7bd 7cea db3d 5751 7b3e
000001c0: eb22 033e c1db 36be 9a2a d5bd b0a3 4dbe
000001d0: 933b f7bd 098a 803d 38ec 60bd 238b 8fbb
000001e0: 0e50 c2bd 2387 64be 727a fdbb 0676 09be
000001f0: bc35 96be 781b 853d b718 3abe 1957 c83c
00000200: 4791 dc3d f8b5 2e3e 6fad 3d3e 6712 553e
00000210: c0f9 c43d 5cd3 363d 2256 633f 1486 4bbe
00000220: e8a9 c73d 6e85 b9be c2c2 e03d 81dc 873e
00000230: 5d43 113e a45b fbbf 3064 133e 1995 7b3d
00000240: d13f 22bd a95e 363e 10f2 d3bd 6ba5 6fbe
00000250: dca6 123f 6364 e83d d62f d9bd e2c6 623e
00000260: ddb4 5e3e 4c9b babd de0b 38bd 5128 a9be
00000270: 5be9 14be 1330 903e 9387 4b3e 8ff2 c3be
00000280: f1c2 f23e 43d2 babe 7398 453f 6e2a d6be
00000290: e0e8 03be 72e5 0c3f af2e 4dbe 9553 91be
000002a0: f00d 62be bbb0 453f d37e 913e 8b3d a1bd
000002b0: 0eaf 423d 699c 23be 6143 71be 620c 8d3b
000002c0: 4301 973f 700e 9e3e 65f7 e73c 5ef9 15bf
000002d0: 3cdf 483d dc8e 143f b0e0 8c3e e0dc 98bf
000002e0: e4d6 c3bb ce3f 603e 7350 f13e 4311 d2bd
000002f0: 8c47 60be cdd8 193d d9cd 8abe 361b f0bc
00000300: bfbf cfbc 3a5a dbbc a1fc af3e e294 a53d
00000310: b367 f4be da90 3abe 2e65 5a3d f0a5 9c3e
00000320: 403c 13be 91ab b8be 387c 083f 07d3 f4be
00000330: a384 213f 3835 78be 4d47 c6be be7f a63e
00000340: fd31 afbe 80d6 38bc 7e6b 673a 82a5 3a3f
00000350: ed7b e8bd 4c03 23be d487 0e3e 5e96 1e3e
00000360: 4e9b c53e c98c 7c3d 02e5 353f 69bb 073d
00000370: abcd 88be 043f 973e 4c2d 983d 713d bbbd
00000380: 40d5 b1bd 34f4 babf ec47 ff3d 9af0 c63d
00000390: b10f 65be 5369 45be 012e 81bd 24ba a6bd
000003a0: 7e87 f63e 5a53 02be c663 5b3d 7cd2 173e
000003b0: 9bac 073c c664 13bb de86 18be 97b4 fdbe
000003c0: ddc0 7bbd 2f26 2c3d c7d7 03bb cdca d6bd
000003d0: 494f 6a3e 0202 babe 7ea3 783e 6f66 873d
000003e0: 5fbe 46bd 2f51 a23e 21aa 8a3c 3f90 68be
000003f0: 39c4 733d d3d2 e2bd 0dc9 ff3e 5bd2 2fbe

fc1.bias f4 [128]
-0.076006345 -0.1339761 -0.19703153 1.2760497 0.88479966 0.94349945 -0.16673537 0.032248992
-0.047557727 0.35356978 1.1907121 1.2548127 1.0253966 0.8116476 1.0937648 0.25951976
0.96139723 0.96436185 0.55699915 -0.089521125 0.08712492 0.014082687 0.9930867 0.9471654
-0.068378374 0.36596993 0.10007762 0.3162004 0.8677506 -0.07051517 -0.2579285 -0.06429427
-0.28188723 1.1091383 0.9898146 -0.24037361 0.83943874 0.9916228 0.41375396 1.2256582
1.0904536 -0.3392475 -0.13319126 -0.14038324 0.34186408 -0.33631516 0.44117153 0.81182444
0.2266739 1.0310296 -0.21881993 -0.08430072 0.16969943 -0.18834478 1.3625441 0.7919907
0.081311084 -0.073107965 -0.037439004 -0.09366706 0.558427 1.2963495 -0.20724785 -0.10943056
-0.13284954 -0.17281854 0.020955516 -0.14055331 0.4318428 1.1585302 -0.11000705 -0.19682881
0.6591735 1.1976987 0.07337899 0.99553066 -0.18953378 0.0999567 0.9946599 0.9797562
0.82541066 0.22173928 1.1136618 -0.24390048 1.0854179 -0.22464208 1.0982705 0.23273937
0.11028095 -0.13258122 -0.036889102 -0.42440122 -0.13214955 1.0139885 1.0376645 0.4098102
0.9626211 1.1482934 -0.030146938 -0.07939282 -0.0902328 -0.10952942 -0.06520603 1.0978354
0.9958688 1.0530461 1.0893736 0.37194675 1.0952381 0.18627678 -0.18461932 0.20052256
0.3453053 0.48191422 -0.32127428 1.1197768 -0.16646516 1.0890566 0.18210858 -0.07546948
1.0866406 1.489512 -0.0001538358 0.02327276 1.0527912 0.34229532 0.14156455 0.47807974
00000000: 37a9 9bbd 0831 09be a2c2 49be 9955 a33f
00000010: 3b82 623f 2e89 713f adbc 2abe 8517 043d
00000020: e4cb 42bd 1907 b53e 4169 983f b49d a03f
00000030: 3240 833f 23c8 4f3f 7c00 8c3f c6df 843e
00000040: 211e 763f 6be0 763f 7f97 0e3f da56 b7bd
00000050: 8d6e b23d 12bb 663c ee3a 7e3f 6f79 723f
00000060: f609 8cbd 6960 bb3e 7ff5 cc3d 05e5 a13e
00000070: e724 5e3f 426a 90bd 340f 84be b7ac 83bd
00000080: 8653 90be 3ef8 8d3f 7d64 7d3f 8024 76be
00000090: 75e5 563f feda 7d3f 8fd7 d33e 5ee2 9c3f
000000a0: fc93 8b3f d9b1 adbe 4a63 08be a0c0 0fbe
000000b0: cf08 af3e 8031 acbe 3ce1 e13e bad3 4f3f
000000c0: 341d 683e c7f8 833f 5512 60be dba5 acbd
000000d0: b0c5 2d3e 74dd 40be d867 ae3f e7bf 4a3f
000000e0: 6d86 a63d a1b9 95bd a459 19bd 84d4 bfbd
000000f0: 12f5 0e3f c8ee a53f c838 54be 211d e0bd
00000100: b609 08be 58f7 30be e7aa ab3c 35ed 0fbe
00000110: 801a dd3e b84a 943f 604b e1bd 7e8d 49be
00000120: 98bf 283f 314e 993f b947 963d 19db 7e3f
00000130: 2515 42be 19b6 cc3d 08a2 7e3f 4dd1 7a3f
00000140: 1d4e 533f 9f0f 633e 788c 8e3f 0cc1 79be
00000150: f9ee 8a3f 9308 66be 2194 8c3f 3b53 6e3e
00000160: fbda e13d 5fc3 07be 0719 17bd 1e4b d9be
00000170: 3652 07be 60ca 813f 31d2 843f a4d2 d13e
00000180: 566e 763f 47fb 923f b6f6 f6bc b498 a2bd
00000190: f9cb b8bd f650 e0bd bd8a 85bd df85 8c3f
000001a0: 42f1 7e3f 37ca 863f 9870 8b3f ce6f be3e
000001b0: c330 8c3f 57bf 3e3e d90c 3dbe c955 4d3e
000001c0: dbcb b03e 76bd f63e 107e a4be d954 8f3f
000001d0: d875 2abe 3566 8b3f ac7a 3a3e be8f 9abd
000001e0: 0a17 8b3f 54a8 be3f fc4e 21b9 84a6 be3c
000001f0: ddc1 863f 5541 af3e 4cf6 103e dec6 f43e

fc2.weight f4 [128, 128]
0.17724885 -0.0124386 0.22650954 0.02748374 -0.076367505 -0.22795075 0.20407325 0.19057974
0.054772317 0.043468844 -0.026049672 -0.22582181 -0.05669582 -0.10687974 0.124603055 0.09132677
0.103896305 0.083871685 -0.11142028 0.10287841 0.09948957 0.055944663 0.05106881 0.017017895
0.1885658 -0.091636315 -0.10247558 -0.13466012 0.046258442 0.1280046 -0.011278694 0.23844878
0.06310227 0.033828884 -0.055616803 0.2724518 -0.09314078 0.35031798 -0.25922084 -0.18196376
-0.17398788 0.20068108 0.16170125 0.087921694 0.022898277 0.23204385 0.1982672 -0.21801403
0.15228394 -0.14844282 0.21137257 -0.014693456 -0.011760179 0.048926786 -0.0686727 0.10569382
0.008270952 0.18700087 0.23745045 0.016519768 -0.30718502 -0.08368999 -0.060877647 0.18287112
0.31093392 0.29724964 -0.024482055 0.23929581 -0.37904668 -0.009922703 0.26857364 0.3838291
0.05871982 -0.05378784 0.15220144 -0.09008842 0.18313704 0.013900882 -0.26799217 -0.25183535
0.40227985 -0.063275054 -0.16686279 0.030421495 0.25618213 0.31120163 0.0057575884 0.017440317
0.006784627 0.2580608 0.092896245 0.37224206 -0.058717936 0.09130644 0.123103045 -0.1880188
0.24762608 -0.068823904 -0.075762235 0.18185267 -0.03840414 0.18454508 -0.0663886 -0.2980993
-0.012651178 -0.015723092 -0.13700458 -0.20160227 0.24511784 -0.032744225 0.15316284 0.12340916
-0.24754031 0.0021575433 0.018595336 -0.0073311618 0.035805494 -0.15636683 0.01937069 0.14770336
0.13003285 -0.3059106 0.1071374 -0.055383585 -0.1496599 -0.07259498 0.22436596 0.15374087
-0.036928974 -0.4405919 -0.2904787 0.98200136 0.798829 0.7186189 -0.12776211 -0.49279395
-0.58604175 -0.2911094 1.4202865 1.0043646 0.85004824 0.46283376 1.0179532 0.31434685
1.5144936 1.484764 0.240522 -0.39987242 0.10371985 -0.21079737 1.5127368 1.5510013
-0.35637048 0.19261807 -0.29268107 0.0011315389 1.1400435 -0.1645713 -0.2101257 -0.35143736
-0.10593553 0.86857486 1.6727623 -0.1290358 0.6711218 1.197803 -0.17142223 1.1731738
1.2803324 0.006688854 -0.21042117 -0.18682237 0.21471106 -0.45979607 0.31145883 0.8126563
-0.29523796 1.2976758 -0.33676368 -0.20003493 -1.1767533 -0.3216596 1.3933322 0.77376103
0.046292488 -0.24326494 -0.5919692 0.11096183 0.24841933 0.96594405 -0.19988264 -0.10869906
-0.2199727 0.20497842 -0.012898027 -0.0998049 -0.08514915 1.8055981 -0.6178477 -0.2710809
0.42230284 0.9018105 -0.48140565 0.835233 -0.5285309 -0.13002089 1.8029306 0.6660247
0.6204943 0.14480683 1.1706643 -0.011163065 1.4865589 0.036935706 1.1340992 -0.08781404
-0.25129363 0.0069387266 -0.13500588 -0.1468864 -0.29740778 1.3536971 1.5348747 0.042274635
0.8183825 1.0850216 -0.24504569 -0.12675479 -0.7068841 -0.21626242 -0.3327844 0.72904915
0.7881582 1.6162398 1.2276812 -0.06454873 1.1469115 0.08718326 -0.44852355 0.07129166
-0.22836134 0.23782107 -0.31153077 1.2768294 -0.39454588 1.2273399 -0.3473224 -0.16526169
1.1599993 0.9773112 -0.42143944 -0.7608664 0.99911565 -0.006814828 -0.29993254 0.15686677
00000000: b980 353e 45cb 4bbc 1ef2 673e 9525 e13c
00000010: 9166 9cbd ec6b 69be 94f8 503e 5627 433e
00000020: f058 603d 630c 323d 1f66 d5bc d53d 67be
00000030: e039 68bd c4e3 dabd e32f ff3d 8809 bb3d
00000040: 96c7 d43d ebc4 ab3d 5130 e4bd eab1 d23d
00000050: 30c1 cb3d 3b26 653d 872d 513d 1d69 8b3c
00000060: 6517 413e d2ab bbbd b8de d1bd 58e4 09be
00000070: 7e79 3d3d a313 033e 45ca 38bc eb2b 743e
00000080: c33b 813d 2890 0a3d 72ce 63bd cd7e 8b3e
00000090: 98c0 bebd e15c b33e 98b8 84be b554 3abe
000000a0: e129 32be 577f 4d3e 0395 253e 4a10 b43d
000000b0: 2b95 bb3c e79c 6d3e 8f06 4b3e 123f 5fbe
000000c0: 52f0 1b3e 6501 18be 0d72 583e d2bc 70bc
000000d0: c4ad 40bc 7467 483d 46a4 8cbd 0076 d83d
000000e0: e382 073c 287d 3f3e 3626 733e 7754 873c
000000f0: 5b47 9dbe a865 abbd d75a 79bd 9142 3b3e
00000100: bb32 9f3e 1b31 983e 978e c8bc f609 753e
00000110: 6812 c2be d592 22bc 7c82 893e 3f85 c43e
00000120: 3284 703d a350 5cbd b2da 1b3e 4780 b8bd
00000130: 4788 3b3e 86c0 633c 4536 89be 90f0 80be
00000140: a0f7 cd3e 5a96 81bd 14de 2abe 8036 f93c
00000150: 4e2a 833e d255 9f3e 27aa bc3b ffde 8e3c
00000160: 9451 de3b 8c20 843e 6340 be3d 8396 be3e
00000170: 3882 70bd dffe ba3d 731d fc3d 0088 40be
00000180: b191 7d3e 8cf3 8cbd 3b29 9bbd 9637 3a3e
00000190: a94d 1dbd 63f9 3c3e bff6 87bd 79a0 98be
000001a0: e346 4fbc b7cd 80bc ee4a 0cbe d370 4ebe
000001b0: 2c00 7b3e cf1e 06bd b8d6 1c3e f1bd fc3d
000001c0: 357b 7dbe 9265 0d3b 3f55 983c 3e3a f0bb
000001d0: c8a8 123d a01e 20be 48af 9e3c 8d3f 173e
000001e0: 5527 053e 50a0 9cbe da6a db3d e6d9 62bd
000001f0: 7240 19be adac 94bd 31c0 653e 3f6e 1d3e
00000200: d642 17bd 4395 e1be a0b9 94be 7164 7b3f
00000210: 0f80 4c3f 69f7 373f 12d4 02be 7d4f fcbe
00000220: d506 16bf 4b0c 95be f3cb b53f 058f 803f
00000230: c39c 593f 8cf8 ec3e 4a4c 823f 12f2 a03e
00000240: edda c13f bf0c be3f 664b 763e 14bc ccbe
00000250: 136b d43d 44db 57be 5ca1 c13f 3687 c63f
00000260: 3176 b6be ac3d 453e 4bda 95be 2550 943a
00000270: f2ec 913f 6185 28be 312b 57be 99ef b3be
00000280: baf4 d8bd ec5a 5e3f 131d d63f f621 04be
00000290: a3ce 2b3f 9c51 993f 4f89 2fbe 8f2a 963f
000002a0: efe1 a33f 2d2e db3b a678 57be 5d4e 3fbe
000002b0: 37dd 5b3e 646a ebbe 8877 9f3e 3e0a 503f
000002c0: 6e29 97be 3e1a a63f 4a6c acbe f5d5 4cbe
000002d0: da9f 96bf 91b0 a4be b658 b23f 3415 463f
000002e0: 319d 3d3d 721a 79be 4b8b 17bf f53f e33d
000002f0: a361 7e3e 1c48 773f 09ae 4cbe 9d9d debd
00000300: 8640 61be dde5 513e 3f52 53bc 8366 ccbd
00000310: ad62 aebd d71d e73f 442b 1ebf 1ecb 8abe
00000320: 1438 d83e 0edd 663f cd7a f6be d4d1 553f
00000330: cd4d 07bf 3224 05be 6ec6 e63f 9880 2a3f
00000340: b7d8 1e3f 3e48 143e 54d8 953f 4ae5 36bc
00000350: 9047 be3f e549 173d 2a2a 913f d9d7 b3bd
00000360: 8fa9 80be 425e e33b fb3e 0abe 6369 16be
00000370: d545 98be f245 ad3f c676 c43f 2b28 2d3d
00000380: 8481 513f fde1 8a3f 42ed 7abe 02cc 01be
00000390: 5bf6 34bf e573 5dbe b862 aabe f7a2 3a3f
000003a0: bcc4 493f f2e0 ce3f a824 9d3f 2032 84bd
000003b0: ffcd 923f 238d b23d e1a4 e5be 5d01 923d
000003c0: 8ed7 69be 5e87 733e f680 9fbe 256f a33f
000003d0: eb01 cabe 7919 9d3f 3ed4 b1be 5c3a 29be
000003e0: db7a 943f 1131 7a3f e9c6 d7be 24c8 42bf
000003f0: 0bc6 7f3f ec4e dfbb c290 99be afa1 203e

fc2.bias f4 [128]
-0.3286385 0.20915149 0.056825742 0.06250023 0.39510047 -0.010424317 0.08669095 0.19914451
0.12781519 -0.34251538 0.0017517499 0.101567954 0.18439229 0.29807013 0.42818075 0.039919015
-0.23384719 0.35755515 0.19834921 0.33122623 0.12780774 0.0020837083 0.12324602 0.12397313
0.012854885 0.058477044 0.2858396 0.14693911 -0.19625972 -0.021566818 0.2614332 0.08893324
-0.081068836 0.04612736 0.055067364 -0.14537577 -0.02728525 0.083032876 -0.07346042 -0.23755121
-0.07356157 0.5372808 -0.10048817 -0.17948689 0.035503864 -0.01152364 -0.22865088 -0.12631202
0.14983273 0.19040813 -0.19660789 0.17074671 -0.21158333 -0.07386528 -0.17746492 -0.051783204
-0.1155258 0.12730709 -0.15117517 0.026240762 0.38512987 0.07738676 0.34513813 0.13304381
-0.09088989 -0.2623494 0.33217388 -0.3384936 0.12665553 -0.2711661 0.085648894 -0.052732438
0.29511732 0.07486262 0.31457105 0.46632764 -0.11154499 0.108327396 0.48539203 0.04859486
0.58642846 0.22265792 0.028665876 -0.12772068 0.51305854 0.11199781 -0.17491084 -0.097008005
0.16792865 -0.38499734 0.47295967 -0.25276357 0.14836812 0.16664135 0.025904665 -0.33070114
0.06078725 0.15893926 0.1204154 0.06681929 0.5732848 0.14390115 0.047623 -0.34202445
0.021664519 -0.09916417 0.110716395 0.35366803 0.09393125 0.016720118 -0.23438838 0.09783634
0.07108685 -0.1140816 -0.16084063 -0.108053826 0.07183706 -0.19480188 0.52859443 0.031475976
0.031589497 0.41566706 0.25452995 0.18363386 0.42033327 0.08952409 0.29941252 -0.44792035
00000000: 4e43 a8be cf2b 563e 1cc2 683d 1f00 803d
00000010: 9c4a ca3e c1ca 2abc 068b b13d 8aec 4b3e
00000020: fce1 023e 2d5e afbe f99a e53a dc02 d03d
00000030: 55d1 3c3e a69c 983e 823a db3e 1f82 233d
00000040: a375 6fbe 7811 b73e 0e1c 4b3e 7c96 a93e
00000050: 08e0 023e d38e 083b 6968 fc3d a0e5 fd3d
00000060: 4c9d 523c a085 6f3d 9159 923e 3577 163e
00000070: 4ff8 48be e5ac b0bc 93da 853e a122 b63d
00000080: 6b07 a6bd 0bf0 3c3d 518e 613d 63dd 14be
00000090: 5185 dfbc 240d aa3d 6b72 96bd a040 73be
000000a0: 73a7 96bd 3c8b 093f becc cdbd 69cb 37be
000000b0: 806c 113d a6cd 3cbc 7523 6abe f057 01be
000000c0: c06d 193e 59fa 423e 9453 49be 3ad8 2e3e
000000d0: 4da9 58be ae46 97bd 5db9 35be a01a 54bd
000000e0: ca98 ecbd ca5c 023e aacd 1abe def6 d63c
000000f0: be2f c53e f37c 9e3d f2b5 b03e a33c 083e
00000100: 7b24 babd a952 86be b212 aa3e 084f adbe
00000110: fdb1 013e 48d6 8abe b068 af3d f8fd 57bd
00000120: 9e19 973e 9351 993d 750f a13e 7fc2 ee3e
00000130: b371 e4bd c1da dd3d 4e85 f83e 670b 473d
00000140: 2d20 163f 7000 643e b3d4 ea3c 36c9 02be
00000150: ce57 033f 1c5f e53d d41b 33be 22ac c6bd
00000160: 7df5 2b3e 5f1e c5be c527 f23e 3a6a 81be
00000170: d0ed 173e 08a4 2a3e 0536 d43c a951 a9be
00000180: 0dfc 783d f9c0 223e 599c f63d 8dd8 883d
00000190: cbc2 123f d35a 133e 5610 433d d41d afbe
000001a0: ca79 b13c 9616 cbbd 47bf e23d fa13 b53e
000001b0: 075f c03d a1f8 883c 8203 70be 6b5e c83d
000001c0: fb95 913d 9da3 e9bd 68b3 24be 534b ddbd
000001d0: 4f1f 933d 257a 47be f751 073f f4ec 003d
000001e0: fd63 013d 50d2 d43e c051 823e 840a 3c3e
000001f0: ec35 d73e 6858 b73d 994c 993e d155 e5be

fc3.weight f4 [7, 128]
-0.40580526 1.0516038 1.219748 1.233028 0.51923466 1.5525789 0.85829866 1.2361325
1.1426291 -0.46309158 0.37550375 0.933408 1.3777263 0.88201827 0.34421858 1.3317354
-0.13138293 0.20274575 0.25517926 0.6024058 1.3162162 0.94499075 1.1046032 0.9417886
1.456477 1.2646818 0.45679638 1.0517391 -0.5601597 0.6822059 0.121071465 1.3961279
0.5987039 1.3944892 0.38778076 0.35839677 -0.5315509 1.1140661 -0.3162489 0.13335419
0.44101062 0.3669104 0.405178 -0.11700807 0.7510966 0.54743725 -0.0014764974 -0.26368126
0.84432876 1.0389524 -0.18349662 0.93485254 -0.4655544 -0.35282755 -0.016897727 -0.118032634
0.46301335 0.3488345 -0.24103215 0.9570349 0.72700816 0.40468895 0.67381114 1.2234389
-0.037270676 -0.5982058 1.2451013 -0.49664474 1.323422 -0.34538284 0.04852043 0.065955214
0.89482766 1.0253464 0.72746265 0.28366444 -0.29449603 1.1409502 0.31244585 1.3251458
0.14786422 0.8369068 1.3365768 -0.39562458 0.3394714 1.1950647 -0.23931809 0.119358286
1.0770924 -0.16579753 0.7593904 -0.017846586 0.6678432 0.41187638 1.1020153 -0.5057951
1.0487068 0.9361181 1.2398298 0.37230003 0.33718243 1.5162011 1.11912 -0.15729395
0.85012966 0.080165364 1.1759617 0.41465276 1.1359978 1.2384822 -0.24749304 1.5867724
0.9557361 -0.20918913 -0.30610895 -0.15057096 1.435936 0.36538014 0.32721165 -0.40336996
0.8907145 0.24565826 0.47915456 1.2575524 0.8827545 1.0309783 0.44311622 -0.23897895
-0.23499346 1.5953715 1.2493372 1.6575167 1.1044236 1.3885877 1.1992207 1.4259251
1.2626815 -0.25485536 -0.5422747 1.2427666 1.6518298 1.2415375 0.36035058 1.4210577
-0.5220067 0.49069473 0.80249834 0.63827723 1.5672394 1.2727504 1.1817335 1.3995403
1.4807112 1.4366825 0.22090203 1.223608 -0.26632795 2.1966949 0.37247294 1.664542
-0.26976466 1.6891044 1.0560949 0.35262844 0.09514598 1.850659 0.29463896 -0.46652347
-0.30026522 0.340525 0.035866175 -0.7350513 -0.3055238 -0.012344641 -0.1693875 -0.21786249
0.25256196 1.2638117 -0.26722327 1.2082675 -0.5722549 0.5973573 -0.43499428 -0.46908182
0.7851037 0.5153162 0.10972404 1.3532425 0.83735275 0.09864491 1.0921853 1.1418772
0.31334373 -0.43530798 1.4917222 0.11971117 1.1947652 -0.5670022 0.034524877 -0.36509678
1.3388186 1.3030441 1.3313401 0.40296096 -0.37998873 1.3816291 0.32335845 1.1817076
0.45623174 1.8772966 0.7201852 -0.6157922 0.4134429 1.2001886 0.045707654 0.40474963
1.4945515 -0.30785584 1.0731474 -0.13647129 0.7678271 -0.014188555 1.6044497 -0.3592069
1.4221975 1.4181638 1.3422444 0.022816475 0.42248374 1.6999512 1.2892271 -0.011816233
2.009094 -0.11287045 1.5027691 0.21617183 1.9282539 1.5557323 -0.24914876 1.8400201
1.1355027 -0.4207084 0.34859088 -0.5406828 1.1506621 0.33584815 0.40151188 -0.13513827
1.2869843 0.35647607 0.090252645 1.4782358 1.2954335 1.4592743 0.6887543 -0.2509958
00000000: b5c5 cfbe f49a 863f b420 9c3f ddd3 9d3f
00000010: 90ec 043f e8ba c63f 76b9 5b3f 9739 9e3f
00000020: ac41 923f 571a edbe 0742 c03e d4f3 6e3f
00000030: 5659 b03f f3cb 613f 6b3d b03e 4e76 aa3f
00000040: 3f89 06be 959c 4f3e dba6 823e 4437 1a3f
00000050: c679 a83f eaea 713f a363 8d3f 0f19 713f
00000060: d76d ba3f 18e1 a13f 37e1 e93e 639f 863f
00000070: a066 0fbf 0ca5 2e3f 51f4 f73d 52b4 b23f
00000080: a944 193f 9f7e b23f 338b c63e c87f b73e
00000090: b813 08bf b899 8e3f 60eb a1be 008e 083e
000000a0: 25cc e13e aedb bb3e 7e73 cf3e eda1 efbd
000000b0: de47 403f d924 0c3f 0887 c1ba 3b01 87be
000000c0: ee25 583f 64fc 843f 8ae6 3bbe 7f52 6f3f
000000d0: 255d eebe d0a5 b4be 1a6d 8abc 18bb f1bd
000000e0: 1610 ed3e 709a b23e 22d1 76be 3d00 753f
000000f0: 351d 3a3f 6433 cf3e e37e 2c3f a599 9c3f
00000100: 23a9 18bd 0424 19bf 7b5f 9f3f 3848 febe
00000110: e465 a93f 05d6 b0be 5cbd 463d 8713 873d
00000120: 6d13 653f 8d3e 833f fe3a 3a3f 773c 913e
00000130: 2fc8 96be a80a 923f e7f8 9f3e 619e a93f
00000140: b869 173e 863f 563f f314 ab3f 4e8f cabe
00000150: 32cf ad3e e1f7 983f cd0f 75be 1e72 f43d
00000160: 2ade 893f d4c6 29be 6967 423f 0133 92bc
00000170: c6f7 2a3f 76e1 d23e d60e 8d3f ca7b 01bf
00000180: 063c 863f 70a5 6f3f beb2 9e3f 1c9e be3e
00000190: 2da3 ac3e e112 c23f 533f 8f3f aa11 21be
000001a0: 19a2 593f bd2d a43d ea85 963f 5e4d d43e
000001b0: 6068 913f 9686 9e3f d16e 7dbe 5c1b cb3f
000001c0: 1fab 743f ad35 56be 50ba 9cbe 462f 1abe
000001d0: c0cc b73f 1b13 bb3e 4988 a73e 8286 cebe
000001e0: de05 643f d78d 7b3e bf53 f53e 7af7 a03f
000001f0: 33fc 613f 19f7 833f 21e0 e23e e6b6 74be
00000200: 20a2 70be 2235 cc3f 48ea 9f3f 8229 d43f
00000210: c15d 8d3f 3ebd b13f 1080 993f b784 b63f
00000220: 8c9f a13f 677c 82be 84d2 0abf fa12 9f3f
00000230: 296f d33f b3ea 9e3f df7f b83e 38e5 b53f
00000240: 3ba2 05bf 573c fb3e 8870 4d3f 2366 233f
00000250: 4d9b c83f 7ce9 a23f 0b43 973f 2324 b33f
00000260: f287 bd3f 36e5 b73f 2434 623e 309f 9c3f
00000270: 235c 88be a696 0c40 c6b4 be3e b60f d53f
00000280: 981e 8abe 9334 d83f 1e2e 873f b78b b43e
00000290: e5db c23d 65e2 ec3f ebda 963e 2adc eebe
000002a0: 5dbc 99be 4b59 ae3e 69e8 123d 522c 3cbf
000002b0: 9e6d 9cbe 2d41 4abc eb73 2dbe 5817 5fbe
000002c0: cd4f 813e 95c4 a13f 7dd1 88be 82a8 9a3f
000002d0: 4c7f 12bf 68ec 183f 92b7 debe 7e2b f0be
000002e0: 8efc 483f c3eb 033f ffb6 e03d 0d37 ad3f
000002f0: c05c 563f 5806 ca3d bacc 8b3f 0829 923f
00000300: 976e a03e b0e0 debe c1f0 be3f 212b f53d
00000310: 11ee 983f 0e27 11bf f569 0d3d f7ed babe
00000320: 685e ab3f 26ca a63f 5a69 aa3f e650 ce3e
00000330: e28d c2be 39d9 b03f 3d8f a53e 3242 973f
00000340: 3597 e93e 414b f03f 0f5e 383f 8fa4 1dbf
00000350: caae d33e c89f 993f f337 3b3d 583b cf3e
00000360: 774d bf3f 489f 9dbe e55c 893f 21bf 0bbe
00000370: 5190 443f 1d77 68bc 9c5e cd3f f7e9 b7be
00000380: 910a b63f 6486 b53f aace ab3f 9ee9 ba3c
00000390: ca4f d83e 0098 d93f 6505 a53f e098 41bc
000003a0: ff94 0040 9f28 e7bd bd5a c03f 265c 5d3e
000003b0: 06d1 f63f 3c22 c73f da20 7fbe c785 eb3f
000003c0: 2758 913f 1767 d7be 817a b23e 306a 0abf
000003d0: e548 933f 4af4 ab3e f792 cd3e b061 0abe
000003e0: e7bb a43f 0884 b63e 61d6 b83d d536 bd3f
000003f0: c4d0 a53f 80c9 ba3f 3452 303f 8682 80be

fc3.bias f4 [7]
0.106082775 0.1581681 0.19581866 0.16685078 0.262023 0.17613646 0.11404967
00000000: ed41 d93d d2f6 213e b084 483e eeda 2a3e
00000010: e127 863e 1e5d 343e e092 e93d
